data.pth (torch, 5439 bytes, 6 tensors)

l1.weight f4 [8, 63]
000000 2a 06 0d be d5 f3 64 be 07 8a 87 3e 1c 40 34 3e
       -0.13771883 -0.2235864 0.26472494 0.17602581
000010 89 97 a2 bd 0f 02 89 3e 1d dd c3 3e 52 6f 12 3f
       -0.07939059 0.26759383 0.38254634 0.5720111
000020 40 7f 8b be c8 f0 03 3f d1 8e a3 bd 5e ea b5 3e
       -0.27245522 0.5153928 -0.079862244 0.3553037
000030 43 b8 f9 bd 7d 2b 94 3e 60 7c 0c 3e 6f 32 a6 3e
       -0.12193348 0.2893943 0.1371932 0.32460353
000040 3c 3c 08 3e 1f 74 56 3e b5 03 ac 3e a5 49 f2 3e
       0.13304228 0.20942734 0.33596578 0.4732181
000050 07 f8 ba 3d 89 12 a5 3e d4 c9 3b be 04 38 d7 3e
       0.09129339 0.32240704 -0.1833871 0.42034924
000060 7f f9 8d be b6 dc 8d be 80 c8 8d be f6 82 e3 3e
       -0.27729413 -0.27707452 -0.27692032 0.44435853
000070 74 54 fd 3e 03 3b c6 3e 27 bc d0 3d fc d3 8c bd
       0.49478495 0.38716897 0.10192137 -0.0687637
000080 81 2c d7 3e 44 14 06 bd c5 4d 78 3e af 3c 7c bd
       0.4202614 -0.03273417 0.24248417 -0.06158131
000090 e4 bb 52 3e 92 28 27 bc e2 81 09 be 0d d3 2f 3e
       0.20579487 -0.010202544 -0.13428453 0.17170353
0000a0 45 9a 20 3e 9c 82 a8 3e cc 8b f6 3e 54 12 eb bc
       0.15683849 0.32912147 0.48153532 -0.028695263
0000b0 37 82 56 be 90 84 96 3e d9 b5 97 3e 16 90 9a 3e
       -0.2094811 0.29398012 0.29630926 0.30188054
0000c0 db b7 26 3d a7 ea 38 be 1f 12 66 ba 05 48 0e 3e
       0.040702682 -0.18058263 -0.0008776504 0.13894661
0000d0 74 ad 72 bc e2 d9 b0 3e d1 01 f5 bd bf d1 eb 3e
       -0.014811862 0.3454123 -0.11963237 0.4605846
0000e0 3f 63 20 3d b5 7b c1 be 9b 41 6d 3e 94 4a 17 bd
       0.03915715 -0.37789693 0.23169558 -0.036936358
0000f0 65 88 b2 3e f2 47 08 3f 35 61 5c 3d ce 6d 80 3e
       0.34869686 0.5323478 0.05380364 0.25083774
000100 72 f1 82 bd 1e b6 bd 3e 8e 39 de bc ff df 6d 3e
       -0.06393708 0.37053007 -0.027127054 0.23229979
000110 c2 87 7a 3d 14 a2 d8 3d 6f 66 82 3f 25 54 e7 bd
       0.061164625 0.10577789 1.018751 -0.11295346
000120 84 74 ac 3e 61 93 94 3d db 17 a4 3e 19 5f f9 3e
       0.33682644 0.07254673 0.3204945 0.48705366
000130 51 18 50 3e b0 da 83 3e ea ec 88 3e 35 90 0d 3f
       0.20321776 0.25752783 0.2674325 0.5529817
000140 3d e4 d0 3e 3f d6 16 3e 27 7a 35 3e b3 35 a5 3e
       0.40799132 0.14730166 0.17722379 0.32267532
000150 bc 70 54 3e 34 01 01 be e9 a9 87 bd f3 bb 2f be
       0.2074613 -0.12598115 -0.06624205 -0.1716154
000160 ff 79 29 be 62 bc 35 be dd bb ab 3e 9f 4f d3 3e
       -0.16550444 -0.17747644 0.33541766 0.41271684
000170 c1 bd b7 3e e0 e7 19 3e 71 34 1f 3e d3 49 88 3e
       0.35886958 0.1502986 0.15547349 0.26618823
000180 2a 6a 9d 3d 96 bf aa 3e 3d 68 92 3e ac 41 8f 3e
       0.07686265 0.33349293 0.28595152 0.2797979
000190 3c ac 07 3f 20 54 ab 3e 27 cd a7 3e c6 08 63 3e
       0.52997184 0.3346262 0.32773706 0.22171316
0001a0 50 20 ba bb 21 99 2d 3f c8 89 15 3f 3b 58 d4 be
       -0.0056801215 0.6781178 0.5841336 -0.41473565
0001b0 b3 0c 86 bf 9c fc af 3e b2 fe bd bc c5 56 cc 3e
       -1.0472625 0.34372413 -0.023192737 0.3990995
0001c0 73 ac a7 3d ba e1 88 3e 0b 23 88 3d fb c6 23 3f
       0.08187189 0.26734716 0.06647309 0.63975495
0001d0 8b 4d be 3e 12 14 61 3d eb 93 27 3e e7 c3 0e 3f
       0.37168536 0.05495078 0.1636502 0.55767673
0001e0 f2 de 8c be b6 83 30 3e 17 84 78 bd 1f be 85 3e
       -0.27513844 0.17237744 -0.060672846 0.26121613
0001f0 db c0 50 3e c0 c5 b6 3e e6 06 16 be d8 bc ed ba
       0.20386069 0.35697746 -0.14651069 -0.0018137945
000200 c2 73 6c bd 0a 34 e4 3c d6 19 29 be ec fc 8f 3e
       -0.057727583 0.027856845 -0.16513762 0.28122652
000210 ad cf e2 3e c2 18 55 3d c5 e2 da be 1d 17 0d 3f
       0.4429907 0.052025564 -0.42751136 0.55113393
000220 ee fd 47 be b3 20 0f 3f f7 17 cc bd c1 97 a5 3e
       -0.1953046 0.5590927 -0.099655084 0.32342342
000230 9d d5 d0 3e 52 fc 58 3d 89 75 64 be 7c ee 15 3f
       0.40787974 0.052975006 -0.22310461 0.58567023
000240 ec e7 fc 3e 6f 2d c7 3e b2 c6 57 be 08 22 1e be
       0.49395692 0.3890185 -0.2107189 -0.1544267
000250 62 2a b8 be 5d 78 c4 3e 5c 4b a4 3e 5d cd a1 3e
       -0.35969836 0.3837308 0.32088745 0.31601992
000260 28 c9 6a 3e 2e b8 21 3f 6c 75 a0 3e e6 2e 09 3f
       0.22928298 0.6317166 0.31339586 0.53587186
000270 34 58 86 be b3 e6 9b bd 74 ac 0e 3f d1 bc e1 bd
       -0.2623917 -0.07612362 0.5573189 -0.11022342
000280 1e b2 d1 3e 3b a5 16 be 8b 94 e1 3e b0 a9 83 be
       0.40956205 -0.14711468 0.44058642 -0.257154
000290 a6 ac 9e bd 3d 35 22 3f c4 10 f4 3e df 3f 1b 3e
       -0.07747774 0.63362485 0.4766904 0.15161084
0002a0 06 bb 79 3d b4 63 14 be f0 a7 50 be 39 67 69 3f
       0.060969375 -0.14491159 -0.20376563 0.9117313
0002b0 a6 80 0d 3d 2a 72 46 3e 7d 9e 63 be 4c 90 6c be
       0.034546517 0.19379488 -0.22228427 -0.2310192
0002c0 2e 3b d1 3e 83 ea da be f9 a4 bc be b3 5e fc 3e
       0.40865463 -0.42757043 -0.36844614 0.49291
0002d0 6b a9 92 bc 81 6c d6 3e 80 55 a0 bd 00 4e 58 be
       -0.01790305 0.41879657 -0.07828808 -0.21123505
0002e0 21 64 af 3e 43 9d 8f be 5d 03 a1 3e 90 2d 93 3e
       0.3425608 -0.2804967 0.31447878 0.287457
0002f0 25 f4 23 be 4b 1d 9e 3e 82 c2 f1 be ce 3e 13 3e
       -0.16011102 0.30881724 -0.4721871 0.14379427
000300 be 16 01 3f ee 6d a9 3e d8 29 88 3e 55 e7 d2 3e
       0.50425327 0.33091682 0.26594424 0.41192117
000310 66 53 3d 3f 71 64 18 3f 0f bc 27 3f 85 5c a7 3e
       0.7395538 0.5952826 0.6552133 0.32687774
000320 c0 62 3e be 52 c3 f9 3d 96 39 90 3e c9 09 f8 bc
       -0.18592358 0.121954575 0.28168935 -0.030278103
000330 17 d9 25 3e 23 f7 5c 3e 45 c3 37 be e6 53 d9 3d
       0.16196094 0.2157865 -0.17945583 0.106117055
000340 32 31 ad 3e 76 c5 4d 3d ca 1c 22 3d 43 23 1a 3f
       0.33826596 0.05023714 0.039578237 0.60210055
000350 e0 c6 d4 3e c6 4b 30 bf cd 38 30 bf f3 0f 29 bf
       0.4155798 -0.6886562 -0.6883667 -0.6603996
000360 9d db a1 3e 2f 90 07 3f 0d f7 44 3e d7 81 38 3e
       0.31612864 0.5295438 0.19234867 0.1801828
000370 c9 e8 27 3e 7c ac ec 3e 04 e3 bc 3e fd 93 50 3e
       0.16397394 0.46225345 0.3689195 0.20368953
000380 cd 1d 41 3e 6e 3a e2 3d b9 2d 97 3e 39 96 5d 3e
       0.18859024 0.11046301 0.2952707 0.21639337
000390 d4 6f 33 be 9e 56 d6 bc 37 6d 87 3e b8 7c b8 3e
       -0.17523128 -0.02616435 0.26450512 0.36032653
0003a0 97 3e 6a 3d 55 e1 ee 3e 0e 22 9a 3d 80 19 69 3e
       0.057188597 0.4665629 0.07526027 0.22763634
0003b0 bb c7 91 3e 8d 45 4f 3e 48 1b b7 3e 6d d6 ad bc
       0.28472695 0.20241375 0.35763 -0.02122041
0003c0 df 11 47 3e 5b 3d 3e 3e 71 6f ba 3e c8 e4 bd bd
       0.19440411 0.18578093 0.36413148 -0.09272152
0003d0 ef 40 0f 3f d6 fe 8c 3e 59 6f 91 be 4c 75 93 3b
       0.55958456 0.27538174 -0.28405264 0.004500067
0003e0 bf ef 9b 3e 60 6b f5 3d 6c 80 be 3e 99 e8 cf 3e
       0.3045635 0.11983371 0.37207353 0.40607145
0003f0 f6 68 94 be f1 53 5c be d5 78 60 bd 33 d4 38 bd
       -0.2898633 -0.21516396 -0.054802734 -0.045124244

l1.bias f4 [8]
000000 0b e3 8d 3e ac 86 f0 3e 77 e6 da 3e d6 4c 30 3f
       0.27712283 0.46977746 0.42753956 0.6886724
000010 67 13 e9 3e ec 0a 59 3f 91 25 e8 3e 9a dc 04 3f
       0.45522615 0.8478229 0.4534116 0.5189911

l2.weight f4 [8, 8]
000000 df 26 94 3e 5e 3c 1f 3f 95 67 ac 3e f0 13 fd 3d
       0.28935906 0.6220149 0.33672777 0.123573184
000010 d5 3f 72 be ef 76 93 3d bb 39 00 bf 62 0f c5 be
       -0.23657162 0.07200419 -0.5008809 -0.384883
000020 c4 22 4e 3f bb 55 b0 3e 4e 3f 09 3f 45 c9 3d 3f
       0.805218 0.34440407 0.5361222 0.7413524
000030 b5 95 2e bc e1 79 68 bf 20 5f 71 be dd ab 10 3d
       -0.01065581 -0.9081097 -0.23571444 0.03532015
000040 b6 f2 2b 3f c3 4b 69 3f 6e b3 37 3f 0e b6 59 be
       0.6716722 0.9113123 0.7175816 -0.21260855
000050 64 0b 1c bf 5b ba 9e 3f 75 f2 d5 3e 77 51 16 bf
       -0.6095488 1.2400621 0.41786543 -0.58718055
000060 cb 48 a7 3e 2a ad 8a 3f 78 b2 10 bf be 93 52 3f
       0.32672724 1.0834095 -0.5652232 0.82256687
000070 a8 47 29 bd 5d fc 3d be 3a 74 9c 3f f8 d5 be 3f
       -0.041328102 -0.185533 1.222297 1.4909048
000080 b9 c3 1b be 57 5b ff 3e 81 7c a7 3d a7 56 0e 3e
       -0.15211381 0.49874374 0.08178044 0.13900243
000090 01 65 76 be 3c f7 d4 3f 17 08 07 bd 0e 95 08 bf
       -0.24061967 1.663795 -0.0329667 -0.5335244
0000a0 ca 76 ea 3e a5 c5 37 3e ef e5 8b 3e ab e6 92 3f
       0.45793754 0.17946489 0.27323863 1.1476644
0000b0 fe 13 c7 3f 98 94 14 be 88 1c 8f bf c8 5d f9 be
       1.5552976 -0.14509809 -1.1180582 -0.48704362
0000c0 3b 78 09 3f 67 19 0f bf d4 a7 72 3f bd 99 a9 3e
       0.5369908 -0.55898136 0.94787335 0.33125106
0000d0 85 75 8d 3e 18 65 2a 3e 7f 74 4d bf e9 66 8a bf
       0.27628723 0.16640127 -0.80255884 -1.0812656
0000e0 d4 96 35 3f e3 b9 47 be 5e c4 38 3f 4d f4 10 3f
       0.7093327 -0.19504504 0.7217463 0.56622773
0000f0 be 30 91 3f 60 54 51 bd 6c 2c 66 be e2 12 e5 be
       1.1343 -0.051105857 -0.22477883 -0.4474097

l2.bias f4 [8]
000000 a5 fd 9c be d5 57 e6 be f7 95 26 bd 2d 61 e7 bd
       -0.30662265 -0.44988886 -0.04067036 -0.11297832
000010 d7 f7 2b 3f d9 02 f6 3e 64 0b f6 be 0c e3 90 bd
       0.6717505 0.48049048 -0.48055565 -0.07074556

l3.weight f4 [7, 8]
000000 c8 46 b6 3e cf 16 03 3f a7 f7 05 3e 86 25 b2 3d
       0.35600877 0.5120668 0.13082753 0.08698563
000010 76 d3 ab bf 16 d6 63 3e f4 12 84 bf 66 00 a3 3d
       -1.3423908 0.22249636 -1.0318284 0.0795906
000020 3a e4 3b 3f 65 cf f7 be 29 6c 64 3e ea 0e 5d bf
       0.7339512 -0.48400417 0.22306885 -0.8635088
000030 96 be d4 3a d7 06 ab 3b 4b 6e 2c 3f 0f b6 a5 3d
       0.0016231115 0.005219321 0.67355794 0.080913655
000040 af 85 95 bf df 41 ba bf b8 c7 79 bf 95 79 80 be
       -1.1681422 -1.4551352 -0.9757037 -0.2509276
000050 90 13 38 3e fd d0 97 3f 7b b9 91 bf 30 aa 1d 3f
       0.17976213 1.1860653 -1.1384729 0.6158781
000060 da 7f 05 bf d7 c9 b1 be d4 7f 2d 3f 4f 2d b1 bf
       -0.5214821 -0.34724304 0.67773175 -1.3841952
000070 99 34 a9 3f 32 99 9e bf d3 b5 0e c0 4a 97 0b bf
       1.3219177 -1.2390501 -2.2298477 -0.54527724
000080 69 85 f4 be 26 4d c8 3e 83 f5 80 be 98 f7 9b bf
       -0.47758034 0.3912136 -0.2518731 -1.2184935
000090 39 0c b1 bf ae 43 d3 3e c8 c5 8b 3f 8f c6 ec 3e
       -1.3831855 0.41262573 1.0919733 0.46245238
0000a0 b2 c0 91 be d6 ed 02 be 51 49 9c bf 0c e7 9c 3f
       -0.28467327 -0.1278604 -1.2209874 1.225801
0000b0 ac 7b f4 bf 80 df 7b bf 9c 43 0a bf fe 0a 13 bf
       -1.9100242 -0.9838791 -0.54009414 -0.5743865
0000c0 6c 03 02 bf 0b f0 03 bf 00 2b d1 3d ba 40 cd 3e
       -0.5078647 -0.5153815 0.1021328 0.40088445
0000d0 72 2a 60 3e 54 4a 7a bf c9 53 0c bf e3 e3 74 bf
       0.21891192 -0.97769666 -0.54815346 -0.9566023

l3.bias f4 [7]
000000 fd 2e 0d bf 5e 1b 5b bf 66 19 a1 3e e7 e5 df 3e
       -0.55149823 -0.85588634 0.3146469 0.4373009
000010 a8 0f 52 be c7 14 61 3f 02 0b c9 be
       -0.20513785 0.8792233 -0.3926621
